…
busy":"2025-01-20T21:19:23.028655Z","iopub.status.idle":"2025-01-20T21:19:23.891779Z","shell.execute_reply":"2025-01-20T21:19:23.890832Z"},"papermill":{"duration":0.875736,"end_time":"2025-01-20T21:19:23.894502","exception":false,"start_time":"2025-01-20T21:19:23.018766","status":"completed"},"tags":[]},"outputs":[{"name":"stdout","output_type":"stream","text":["----------------------------------------------------------------\n","        Layer (type)               Output Shape         Param #\n","================================================================\n","            Conv2d-1         [-1, 64, 128, 128]           9,408\n","       BatchNorm2d-2         [-1, 64, 128, 128]             128\n","              ReLU-3         [-1, 64, 128, 128]               0\n","         MaxPool2d-4           [-1, 64, 64, 64]               0\n","            Conv2d-5           [-1, 64, 64, 64]          36,864\n","       BatchNorm2d-6           [-1, 64, 64, 64]             128\n","              ReLU-7           [-1, 64, 64, 64]               0\n","            Conv2d-8           [-1, 64, 64, 64]          36,864\n","       BatchNorm2d-9           [-1, 64, 64, 64]             128\n","             ReLU-10           [-1, 64, 64, 64]               0\n","       BasicBlock-11           [-1, 64, 64, 64]               0\n","           Conv2d-12           [-1, 64, 64, 64]          36,864\n","      BatchNorm2d-13           [-1, 64, 64, 64]             128\n","             ReLU-14           [-1, 64, 64, 64]               0\n","           Conv2d-15           [-1, 64, 64, 64]          36,864\n","      BatchNorm2d-16           [-1, 64, 64, 64]             128\n","             ReLU-17           [-1, 64, 64, 64]               0\n","       BasicBlock-18           [-1, 64, 64, 64]               0\n","           Conv2d-19           [-1, 64, 64, 64]          36,864\n","      BatchNorm2d-20           [-1, 64, 64, 64]             128\n","             ReLU-21           [-1, 64, 64, 64]               0\n","           Conv2d-22           [-1, 64, 64, 64]          36,864\n","      BatchNorm2d-23           [-1, 64, 64, 64]             128\n","             ReLU-24           [-1, 64, 64, 64]               0\n","       BasicBlock-25           [-1, 64, 64, 64]               0\n","           Conv2d-26          [-1, 128, 32, 32]          73,728\n","      BatchNorm2d-27          [-1, 128, 32, 32]             256\n","             ReLU-28          [-1, 128, 32, 32]               0\n","           Conv2d-29          [-1, 128, 32, 32]         147,456\n","      BatchNorm2d-30          [-1, 128, 32, 32]             256\n","           Conv2d-31          [-1, 128, 32, 32]           8,192\n","      BatchNorm2d-32          [-1, 128, 32, 32]             256\n","             ReLU-33          [-1, 128, 32, 32]               0\n","       BasicBlock-34          [-1, 128, 32, 32]               0\n","           Conv2d-35          [-1, 128, 32, 32]         147,456\n","      BatchNorm2d-36          [-1, 128, 32, 32]             256\n","             ReLU-37          [-1, 128, 32, 32]               0\n","           Conv2d-38          [-1, 128, 32, 32]         147,456\n","      BatchNorm2d-39          [-1, 128, 32, 32]             256\n","             ReLU-40          [-1, 128, 32, 32]               0\n","       BasicBlock-41          [-1, 128, 32, 32]               0\n","           Conv2d-42          [-1, 128, 32, 32]         147,456\n","      BatchNorm2d-43          [-1, 128, 32, 32]             256\n","             ReLU-44          [-1, 128, 32, 32]               0\n","           Conv2d-45          [-1, 128, 32, 32]         147,456\n","      BatchNorm2d-46          [-1, 128, 32, 32]             256\n","             ReLU-47          [-1, 128, 32, 32]               0\n","       BasicBlock-48          [-1, 128, 32, 32]               0\n","           Conv2d-49          [-1, 128, 32, 32]         147,456\n","      BatchNorm2d-50          [-1, 128, 32, 32]             256\n","             ReLU-51          [-1, 128, 32, 32]               0\n","           Conv2d-52          [-1, 128, 32, 32]         147,456\n","      BatchNorm2d-53          [-1, 128, 32, 32]             256\n","             ReLU-54          [-1, 128, 32, 32]               0\n","       BasicBlock-55          [-1, 128, 32, 32]               0\n","           Conv2d-56          [-1, 256, 16, 16]         294,912\n","      BatchNorm2d-57          [-1, 256, 16, 16]             512\n","             ReLU-58          [-1, 256, 16, 16]               0\n","           Conv2d-59          [-1, 256, 16, 16]         589,824\n","      BatchNorm2d-60          [-1, 256, 16, 16]             512\n","           Conv2d-61          [-1, 256, 16, 16]          32,768\n","      BatchNorm2d-62          [-1, 256, 16, 16]             512\n","             ReLU-63          [-1, 256, 16, 16]               0\n","       BasicBlock-64          [-1, 256, 16, 16]               0\n","           Conv2d-65          [-1, 256, 16, 16]         589,824\n","      BatchNorm2d-66          [-1, 256, 16, 16]             512\n","             ReLU-67          [-1, 256, 16, 16]               0\n","           Conv2d-68          [-1, 256, 16, 16]         589,824\n","      BatchNorm2d-69          [-1, 256, 16, 16]             512\n","             ReLU-70          [-1, 256, 16, 16]               0\n","       BasicBlock-71          [-1, 256, 16, 16]               0\n","           Conv2d-72          [-1, 256, 16, 16]         589,824\n","      BatchNorm2d-73          [-1, 256, 16, 16]             512\n","             ReLU-74          [-1, 256, 16, 16]               0\n","           Conv2d-75          [-1, 256, 16, 16]         589,824\n","      BatchNorm2d-76          [-1, 256, 16, 16]             512\n","             ReLU-77          [-1, 256, 16, 16]               0\n","       BasicBlock-78          [-1, 256, 16, 16]               0\n","           Conv2d-79          [-1, 256, 16, 16]         589,824\n","      BatchNorm2d-80          [-1, 256, 16, 16]             512\n","             ReLU-81          [-1, 256, 16, 16]               0\n","           Conv2d-82          [-1, 256, 16, 16]         589,824\n","      BatchNorm2d-83          [-1, 256, 16, 16]             512\n","             ReLU-84          [-1, 256, 16, 16]               0\n","       BasicBlock-85          [-1, 256, 16, 16]               0\n","           Conv2d-86          [-1, 256, 16, 16]         589,824\n","      BatchNorm2d-87          [-1, 256, 16, 16]             512\n","             ReLU-88          [-1, 256, 16, 16]               0\n","           Conv2d-89          [-1, 256, 16, 16]         589,824\n","      BatchNorm2d-90          [-1, 256, 16, 16]             512\n","             ReLU-91          [-1, 256, 16, 16]               0\n","       BasicBlock-92          [-1, 256, 16, 16]               0\n","           Conv2d-93          [-1, 256, 16, 16]         589,824\n","      BatchNorm2d-94          [-1, 256, 16, 16]             512\n","             ReLU-95          [-1, 256, 16, 16]               0\n","           Conv2d-96          [-1, 256, 16, 16]         589,824\n","      BatchNorm2d-97          [-1, 256, 16, 16]             512\n","             ReLU-98          [-1, 256, 16, 16]               0\n","       BasicBlock-99          [-1, 256, 16, 16]               0\n","          Conv2d-100            [-1, 512, 8, 8]       1,179,648\n","     BatchNorm2d-101            [-1, 512, 8, 8]           1,024\n","            ReLU-102            [-1, 512, 8, 8]               0\n","          Conv2d-103            [-1, 512, 8, 8]       2,359,296\n","     BatchNorm2d-104            [-1, 512, 8, 8]           1,024\n","          Conv2d-105            [-1, 512, 8, 8]         131,072\n","     BatchNorm2d-106            [-1, 512, 8, 8]           1,024\n","            ReLU-107            [-1, 512, 8, 8]               0\n","      BasicBlock-108            [-1, 512, 8, 8]               0\n","          Conv2d-109            [-1, 512, 8, 8]       2,359,296\n","     BatchNorm2d-110            [-1, 512, 8, 8]           1,024\n","            ReLU-111            [-1, 512, 8, 8]               0\n","          Conv2d-112            [-1, 512, 8, 8]       2,359,296\n","     BatchNorm2d-113            [-1, 512, 8, 8]           1,024\n","            ReLU-114            [-1, 512, 8, 8]               0\n","      BasicBlock-115            [-1, 512, 8, 8]               0\n","          Conv2d-116            [-1, 512, 8, 8]       2,359,296\n","     BatchNorm2d-117            [-1, 512, 8, 8]           1,024\n","            ReLU-118            [-1, 512, 8, 8]               0\n","          Conv2d-119            [-1, 512, 8, 8]       2,359,296\n","     BatchNorm2d-120            [-1, 512, 8, 8]           1,024\n","            ReLU-121            [-1, 512, 8, 8]               0\n","      BasicBlock-122            [-1, 512, 8, 8]               0\n","   ResNetEncoder-123  [[-1, 3, 256, 256], [-1, 64, 128, 128], [-1, 64, 64, 64], [-1, 128, 32, 32], [-1, 256, 16, 16], [-1, 512, 8, 8]]               0\n","        Identity-124            [-1, 512, 8, 8]               0\n","        Identity-125          [-1, 768, 16, 16]               0\n","       Attention-126          [-1, 768, 16, 16]               0\n","          Conv2d-127          [-1, 256, 16, 16]       1,769,472\n","     BatchNorm2d-128          [-1, 256, 16, 16]             512\n","            ReLU-129          [-1, 256, 16, 16]               0\n","          Conv2d-130          [-1, 256, 16, 16]         589,824\n","     BatchNorm2d-131          [-1, 256, 16, 16]             512\n","            ReLU-132          [-1, 256, 16, 16]               0\n","        Identity-133          [-1, 256, 16, 16]               0\n","       Attention-134          [-1, 256, 16, 16]               0\n","    DecoderBlock-135          [-1, 256, 16, 16]               0\n","        Identity-136          [-1, 384, 32, 32]               0\n","       Attention-137          [-1, 384, 32, 32]               0\n","          Conv2d-138          [-1, 128, 32, 32]         442,368\n","     BatchNorm2d-139          [-1, 128, 32, 32]             256\n","            ReLU-140          [-1, 128, 32, 32]               0\n","          Conv2d-141          [-1, 128, 32, 32]         147,456\n","     BatchNorm2d-142          [-1, 128, 32, 32]             256\n","            ReLU-143          [-1, 128, 32, 32]               0\n","        Identity-144          [-1, 128, 32, 32]               0\n","       Attention-145          [-1, 128, 32, 32]               0\n","    DecoderBlock-146          [-1, 128, 32, 32]               0\n","        Identity-147          [-1, 192, 64, 64]               0\n","       Attention-148          [-1, 192, 64, 64]               0\n","          Conv2d-149           [-1, 64, 64, 64]         110,592\n","     BatchNorm2d-150           [-1, 64, 64, 64]             128\n","            ReLU-151           [-1, 64, 64, 64]               0\n","          Conv2d-152           [-1, 64, 64, 64]          36,864\n","     BatchNorm2d-153           [-1, 64, 64, 64]             128\n","            ReLU-154           [-1, 64, 64, 64]               0\n","        Identity-155           [-1, 64, 64, 64]               0\n","       Attention-156           [-1, 64, 64, 64]               0\n","    DecoderBlock-157           [-1, 64, 64, 64]               0\n","        Identity-158        [-1, 128, 128, 128]               0\n","       Attention-159        [-1, 128, 128, 128]               0\n","          Conv2d-160         [-1, 32, 128, 128]          36,864\n","     BatchNorm2d-161         [-1, 32, 128, 128]              64\n","            ReLU-162         [-1, 32, 128, 128]               0\n","          Conv2d-163         [-1, 32, 128, 128]           9,216\n","     BatchNorm2d-164         [-1, 32, 128, 128]              64\n","            ReLU-165         [-1, 32, 128, 128]               0\n","        Identity-166         [-1, 32, 128, 128]               0\n","       Attention-167         [-1, 32, 128, 128]               0\n","    DecoderBlock-168         [-1, 32, 128, 128]               0\n","          Conv2d-169         [-1, 16, 256, 256]           4,608\n","     BatchNorm2d-170         [-1, 16, 256, 256]              32\n","            ReLU-171         [-1, 16, 256, 256]               0\n","          Conv2d-172         [-1, 16, 256, 256]           2,304\n","     BatchNorm2d-173         [-1, 16, 256, 256]              32\n","            ReLU-174         [-1, 16, 256, 256]               0\n","        Identity-175         [-1, 16, 256, 256]               0\n","       Attention-176         [-1, 16, 256, 256]               0\n","    DecoderBlock-177         [-1, 16, 256, 256]               0\n","     UnetDecoder-178         [-1, 16, 256, 256]               0\n","          Conv2d-179          [-1, 1, 256, 256]             145\n","        Identity-180          [-1, 1, 256, 256]               0\n","        Identity-181          [-1, 1, 256, 256]               0\n","      Activation-182          [-1, 1, 256, 256]               0\n","================================================================\n","Total params: 24,436,369\n","Trainable params: 3,151,697\n","Non-trainable params: 21,284,672\n","----------------------------------------------------------------\n","Input size (MB): 0.75\n","Forward/backward pass size (MB): 328.50\n","Params size (MB): 93.22\n","Estimated Total Size (MB): 422.47\n","-----------------------
…
